Exercise3/Exercise3/app/src/main/ml/model.tflite (tflite, 149220 bytes, 10 tensors)

sequential/conv2d/Relu;sequential/conv2d/BiasAdd;sequential/conv2d_2/Conv2D;sequential/conv2d/Conv2D;sequential/conv2d/BiasAdd/ReadVariableOp f4 [32, 3, 3, 3]
000000 b0 5c 20 3a 43 2a a9 39 6b e6 03 36 82 c2 13 ba
       0.0006117327 0.0003226568 1.9654642e-06 -0.0005636589
000010 27 80 96 b9 e4 e2 c0 b9 ce 5c 06 38 aa d8 c1 b9
       -0.0002870571 -0.0003679014 3.203452e-05 -0.00036973256
000020 de 93 b4 b9 d3 f4 6a 39 92 0b 59 b9 ad 13 e9 38
       -0.00034442445 0.00022407183 -0.00020699043 0.00011113971
000030 9e 3a 01 3a 22 18 f8 b9 67 b8 15 3a 37 ec 1f b9
       0.0004929694 -0.00047320226 0.0005711377 -0.00015251419
000040 96 3d af 39 9e 8b 67 b7 a3 ac de 38 d0 36 00 b9
       0.00033424486 -1.380118e-05 0.00010617941 -0.0001222745
000050 f0 6f 04 b9 59 9d 0d b9 8c 17 21 b9 8a ca 41 b8
       -0.00012630201 -0.00013505424 -0.00015362928 -4.6203415e-05
000060 a5 87 87 b9 a6 e1 c7 b9 77 34 89 b9 f4 6d 94 37
       -0.0002585027 -0.0003812436 -0.00026169766 1.7694176e-05
000070 54 00 75 39 63 64 9e b9 f9 b8 d0 b9 36 9a b0 b9
       0.00023365143 -0.00030210902 -0.00039810667 -0.00033684232
000080 d0 fc fb b9 92 9b 12 3a 6f b5 e2 39 ab d3 8a b8
       -0.0004806281 0.000559264 0.00043241258 -6.619779e-05
000090 67 5e dc b9 ca 10 fa b8 d5 02 9e 39 d6 c4 8a 39
       -0.00042032005 -0.00011924056 0.00030138218 0.00026468065
0000a0 a8 ca b8 b9 bd c3 75 39 c8 3d d5 39 7c 98 93 b9
       -0.00035246206 0.00023437939 0.00040672556 -0.00028151635
0000b0 cc 0d 01 ba dc ba dd b9 ec fd 11 ba 94 42 64 39
       -0.00049230154 -0.00042291626 -0.00055691483 0.00021768577
0000c0 a5 32 0c 38 71 91 d7 b9 79 80 dd 39 5f fe 6f b9
       3.3425767e-05 -0.00041116358 0.00042248124 -0.00022887577
0000d0 1c 5d b9 b9 ef 81 c6 38 cb 75 ab 39 29 83 06 ba
       -0.00035355322 9.465578e-05 0.00032703424 -0.0005131239
0000e0 ab e2 b2 b9 a5 b4 01 ba 9e 2a e2 38 8f 9d 03 3a
       -0.00034119686 -0.00049478776 0.00010784458 0.00050207315
0000f0 93 40 c5 b8 4f 3e 7f b9 f2 84 ce 39 e9 2e f0 b9
       -9.40572e-05 -0.00024341907 0.00039390434 -0.00045811318
000100 d4 d9 93 37 e4 af 84 39 36 af ad 39 1e 66 18 b9
       1.76252e-05 0.0002530805 0.00033127674 -0.00014533891
000110 d3 57 b6 b8 b9 23 8e 39 cd 4a 59 37 a1 97 1a 3a
       -8.694795e-05 0.00027110966 1.2951624e-05 0.0005897228
000120 37 bf 4c 38 d1 71 b7 39 6a 66 71 39 06 3c 33 b9
       4.8815473e-05 0.0003498928 0.00023021703 -0.00017093131
000130 a5 26 af 39 66 a3 66 39 85 63 37 39 82 d2 db 39
       0.00033407393 0.0002199538 0.00017489314 0.00041927776
000140 16 9c 1d 3a 20 e7 24 36 b9 b5 01 ba 92 ff ee 39
       0.00060123333 2.4572437e-06 -0.0004948038 0.00045585312
000150 09 ec 2f b8 ba 88 af 38 9f 67 67 b9 9c 47 e1 39
       -4.1943076e-05 8.3701176e-05 -0.00022068479 0.00042968697
000160 53 a0 c2 b9 2c f9 ad 39 94 be 5b b9 98 d6 4f b8
       -0.00037122014 0.0003318278 -0.00020956463 -4.9552502e-05
000170 51 47 85 39 1e e0 1c 37 6c 06 a2 38 9d d4 43 b9
       0.00025420872 9.350506e-06 7.725958e-05 -0.00018675854
000180 08 c1 a3 39 a3 96 11 39 28 19 3d 39 ad 08 f1 b9
       0.00031233602 0.00013884394 0.00018033816 -0.00045973566
000190 d5 0e e3 b9 18 da 92 39 67 27 5e 39 ce 49 01 3a
       -0.00043307865 0.00028009783 0.00021186248 0.0004931957
0001a0 f7 6f 26 3a 6c ea 0c 3a a3 cd 69 39 41 57 d0 39
       0.00063490815 0.0005375508 0.00022297217 0.0003973786
0001b0 83 81 d3 39 0e 55 c6 39 7f 25 bd b9 4a 46 d9 39
       0.0004034155 0.00037828874 -0.00036076826 0.00041441835
0001c0 2c e9 7b 39 18 61 08 ba 99 aa 85 39 8a b9 c0 39
       0.00024024089 -0.00052024564 0.00025494842 0.0003675933
0001d0 8e bb b8 b7 ea 68 c9 b9 c6 e9 a1 b9 3a d6 67 b9
       -2.2021846e-05 -0.00038415875 -0.00030882488 -0.00022109682
0001e0 d4 fc 5f 39 52 a9 12 3a be a1 35 b9 52 a5 f9 b9
       0.00021361123 0.00055946887 -0.00017321759 -0.00047616154
0001f0 57 eb a4 39 05 a2 4a 39 0e ee a3 b9 a5 73 a7 39
       0.0003145586 0.00019324578 -0.00031267147 0.00031938884
000200 54 fb 86 39 bd 9a c4 39 4f a6 eb b8 99 af b1 39
       0.00025745726 0.00037499322 -0.000112366506 0.000338909
000210 4f e5 12 b9 8c c6 cc 39 cf 45 f0 b9 7d 94 d0 b9
       -0.00014009069 0.0003905784 -0.0004582838 -0.00039783484
000220 b4 4c 95 38 90 76 6c b8 cb e5 e9 b9 c0 0b bb b9
       7.119161e-05 -5.6377205e-05 -0.00044612432 -0.00035676174
000230 16 ae a6 38 73 70 47 b9 d9 4b 17 3a bd cd a7 b9
       7.947923e-05 -0.0001902001 0.0005771495 -0.0003200601
000240 67 2e 5b 39 08 5a da 39 4c 3a e0 37 41 20 4a b9
       0.00020902754 0.0004164728 2.6730027e-05 -0.00019276237
000250 15 4e 09 3a f3 53 19 ba 95 44 db 36 1f b6 df 39
       0.00052377704 -0.0005848996 6.5346926e-06 0.00042669565
000260 6e bb 8a b6 67 6f 82 39 20 6d 97 39 ae d2 9d b9
       -4.13454e-06 0.00024878533 0.0002888227 -0.00030102342
000270 4c 43 89 39 09 79 bf b8 26 60 96 39 ad 25 3d 39
       0.00026180816 -9.130134e-05 0.00028681866 0.0001803848
000280 a3 6b 15 b9 e9 48 55 b7 67 26 bb 39 ec c1 ba 39
       -0.00014249845 -1.2712765e-05 0.0003569603 0.00035621168
000290 33 63 22 b9 86 04 b7 39 f1 73 f4 b8 d4 ba 7a b9
       -0.00015486479 0.0003490785 -0.000116564224 -0.00023911457
0002a0 0b 66 70 39 cb de b9 b9 4e 9f 87 b9 cd 51 e3 39
       0.00022926198 -0.00035451943 -0.00025867898 0.0004335776
0002b0 66 b0 e4 b9 6c e3 f9 b9 a1 b8 d9 37 2b fb 08 3a
       -0.00043618976 -0.00047662423 2.595439e-05 0.0005225415
0002c0 29 a8 ef b9 78 da d1 38 c9 d1 ac 39 9f 71 a7 b9
       -0.0004571092 0.000100065896 0.000329627 -0.00031937376
0002d0 ab 5b 0c 3a 16 ce a8 39 06 b3 13 ba 5b 89 20 b9
       0.0005354236 0.00032197003 -0.00056342816 -0.00015309958
0002e0 04 14 98 38 3f dd 67 b9 d7 a2 88 39 9f 45 e4 b9
       7.251653e-05 -0.00022112297 0.00026061267 -0.0004353942
0002f0 39 af 0a ba 5b 2f 5e b9 67 3c 54 b9 e4 75 cd b9
       -0.00052903924 -0.00021189211 -0.00020240397 -0.00039188482
000300 1f 59 87 37 9e a8 4d 39 98 5e 13 3a 25 55 12 b8
       1.6134754e-05 0.00019613138 0.00056217005 -3.488841e-05
000310 66 f2 25 ba dc 2c ba 38 09 bb af 39 fe 5a d8 b5
       -0.00063303707 8.877527e-05 0.00033517953 -1.6119736e-06
000320 b2 f1 9f b9 5f d9 e9 39 4b bf 9f b8 f6 4d 97 39
       -0.0003050692 0.00044603177 -7.617342e-05 0.0002885905
000330 d5 3a 13 39 aa f6 e1 b9 8f 01 61 38 27 cd 17 b9
       0.00014040929 -0.00043099123 5.3645632e-05 -0.00014476907
000340 fd 1a 41 39 5e 1a 6b 39 61 c8 a0 38 cd ca 10 b9
       0.00018415968 0.00022421169 7.666718e-05 -0.0001380846
000350 08 99 e8 39 59 4e c3 39 6f b1 43 b8 86 a2 52 39
       0.00044364505 0.00037251672 -4.665687e-05 0.00020087705
000360 9c f5 bc 38 2e d9 f3 39 6f 3f 9d b9 94 a9 ec b9
       9.010287e-05 0.00046510383 -0.00029992635 -0.00045139773
000370 86 08 a8 b9 20 4e 82 b9 e6 15 22 39 ec bc 1b b8
       -0.00032049807 -0.0002485374 0.00015457682 -3.7130827e-05
000380 31 40 08 3a 50 7c f3 b9 f0 b8 86 39 63 3f e0 b9
       0.00051975535 -0.00046441192 0.0002569626 -0.00042771836
000390 78 6e fc b9 4c 0b 83 39 46 4e 75 38 70 9e 96 39
       -0.0004814749 0.00024994684 5.848545e-05 0.00028728275
0003a0 31 4d f5 39 d7 75 67 b9 4d 45 f8 39 82 c0 53 39
       0.00046787554 -0.00022073775 0.0004735388 0.00020194243
0003b0 98 87 66 39 9b c3 d3 39 bd ce c3 b9 23 99 06 3a
       0.00021985022 0.00040390794 -0.0003734733 0.00051345135
0003c0 65 1f f8 b9 ed 73 63 b9 83 fb c5 39 28 5d c4 39
       -0.00047325637 -0.00021691593 0.0003776216 0.0003745344
0003d0 c3 47 7a 36 81 0d b3 b9 2c 5c a5 38 88 83 b1 b9
       3.7294674e-06 -0.00034151602 7.8849815e-05 -0.0003385807
0003e0 da 48 4c 38 fb 77 29 b9 21 b5 cb b9 59 2b 89 38
       4.870524e-05 -0.00016161792 -0.0003885413 6.540743e-05
0003f0 88 0e b7 39 d5 f4 6d b9 50 ca e5 39 d5 eb f6 b9
       0.00034915307 -0.00022693288 0.00043829018 -0.00047096485

sequential/conv2d/BiasAdd/ReadVariableOp f4 [32]
000000 69 a1 75 3c 44 aa 33 3c 09 16 c6 bc 00 a6 b6 bc
       0.014992096 0.010965887 -0.024180429 -0.022295952
000010 23 5c 2f bd ec 0b 2b bc cd 37 76 3c 97 fc b2 bc
       -0.042812478 -0.010439854 0.015027952 -0.02184896
000020 bf 46 83 bc 03 29 e3 bb d1 12 83 bb 97 34 80 bc
       -0.016024945 -0.006932379 -0.004000046 -0.015650077
000030 6f f6 6a bc 45 4f 56 bc 75 f4 53 bc 6e d3 e1 bc
       -0.014340981 -0.013080423 -0.012936701 -0.027566638
000040 c9 9b 3b bb 24 4a 41 3b 00 00 00 00 03 73 0b 3d
       -0.002862679 0.0029493654 0.0 0.03404523
000050 e9 3d b9 3b 7b 19 fa 3c 06 1a 22 bd c4 05 b7 3c
       0.005653132 0.030529728 -0.0395756 0.022341616
000060 ce 26 04 bd 17 4c ce 3b 71 6f 64 3c f0 82 a9 bc
       -0.03226357 0.0062956917 0.013942585 -0.020692319
000070 ff d9 e5 3b 03 ee 05 3c e2 69 a9 bc 18 e4 07 3c
       0.0070145126 0.008174422 -0.020680372 0.008294128

sequential/conv2d_1/BiasAdd/ReadVariableOp f4 [32]
000000 1d 83 fb bb 0d 55 15 bc 66 fd 87 3c 90 0d 4a bc
       -0.007675542 -0.009114516 0.016600322 -0.012332335
000010 d2 b0 97 3c 2e 03 6f bc 48 da 36 3c 39 4b b5 bb
       0.018516932 -0.01458816 0.011160441 -0.005532649
000020 3b ff 89 bc 49 92 5f bc 29 fe c9 bb 52 fd e8 bb
       -0.016845336 -0.013645717 -0.0061643315 -0.0071102763
000030 d7 3a fc bb b7 6c 23 bc b3 24 d9 bb 59 a1 c5 bb
       -0.007697444 -0.00997465 -0.0066266893 -0.006031197
000040 20 0a a1 bc 8f e1 0c bc ec 18 50 bb 09 1a 7f bb
       -0.019658148 -0.008598699 -0.0031753136 -0.003892543
000050 6b e4 02 bd b0 c6 ed 3b a5 4e 9d 3c f8 17 08 3c
       -0.031956118 0.0072563514 0.01920254 0.008306496
000060 e4 db ae bb 93 59 71 bc c2 16 97 3c 86 75 e0 b9
       -0.0053362716 -0.014730829 0.018443469 -0.0004281217
000070 7a 30 82 bc 00 00 00 00 bc 13 aa 3c 13 d4 c9 3b
       -0.015892256 0.0 0.020761363 0.0061593144

sequential/conv2d_2/BiasAdd/ReadVariableOp f4 [32]
000000 4a b5 3f 3b f2 58 b0 bb d7 0c e4 bc 2b 85 f4 bb
       0.0029252344 -0.005381697 -0.027838154 -0.007462164
000010 21 9f e9 bb 93 b1 c3 bb 00 00 00 00 50 b8 23 bc
       -0.0071295653 -0.005972096 0.0 -0.009992674
000020 e9 40 6b 3c 54 14 10 bc 8c 12 ea b9 af fe f3 bb
       0.0143587375 -0.008793909 -0.00044645777 -0.007446132
000030 66 dc 9c 3b f7 04 5e 3c ae b1 81 3b 67 12 57 bb
       0.0047870157 0.013550988 0.0039579486 -0.0032817365
000040 c8 90 34 bc d2 c1 c4 bb f7 60 d8 bb 6f 4e 1b 3c
       -0.011020847 -0.0060045505 -0.006603356 0.009479149
000050 05 a9 45 3c 11 9b de 3b 46 86 3e bc c5 0b b6 bb
       0.012064223 0.0067933877 -0.011628693 -0.0055556023
000060 d4 a1 38 bc 09 2d 06 bc 7e 4d de 3b c1 7d 48 3a
       -0.011269052 -0.008189448 0.00678414 0.00076481333
000070 8b 54 3c 3c ac 72 b3 bb 6c 48 79 3c b7 c2 f0 bc
       0.011494766 -0.0054763164 0.015215021 -0.029389722

sequential/conv2d_1/Conv2D f4 [32, 3, 3, 32]
000000 09 cb 88 3d f1 cc 5f 3d fe ad 12 bc ab f8 67 3d
       0.06679351 0.054638807 -0.008952616 0.056633633
000010 e7 6d 09 3d 93 38 99 3c 98 47 e5 3c d9 e0 06 bd
       0.033552077 0.018703735 0.02798824 -0.032929275
000020 89 8b 92 bc 2e 84 77 bd 39 40 ba 3d ee ea e0 3d
       -0.017888801 -0.06042879 0.09094281 0.10982309
000030 80 5a ca 3c 13 7c 9f 3d 11 0c 17 3c bf cd a4 bc
       0.024701357 0.07787337 0.009219185 -0.020117639
000040 98 a9 ec 3a c7 76 41 3d 90 ac ab 3b c9 db 04 be
       0.0018055914 0.047232416 0.005239077 -0.12974466
000050 30 a6 30 3d e9 8b fd 3c da b6 a1 3d 44 96 e0 bd
       0.04312724 0.030950503 0.07896204 -0.10966161
000060 0d 9f 86 3d 59 af 9f bc a6 89 e6 bd ec 6f c6 3d
       0.06573305 -0.019492792 -0.11256723 0.09689316
000070 65 b4 85 bd 0b 35 b0 bd ea 07 6e 39 ab b9 67 3c
       -0.06528548 -0.08603867 0.00022700397 0.014143388
000080 fd 91 b6 bd 82 ae 8f bd 8f cd 56 3d e8 37 b5 3c
       -0.08914564 -0.070157066 0.05244213 0.022121385
000090 8d 49 ad bd 22 1e 10 bd f2 94 bd 3c 54 1f b5 bd
       -0.08461294 -0.035184987 0.023142312 -0.08843866
0000a0 29 00 9f bd 95 56 0b bd fd f3 99 bd 1b 58 fc bc
       -0.077637024 -0.034018118 -0.0751724 -0.03080373
0000b0 09 d7 8a bd c4 f7 22 bc c0 07 49 3d 20 23 8f bd
       -0.06779296 -0.009946767 0.049079657 -0.069891214
0000c0 b1 dc 92 bd ed da dd bd 42 db 5a bd 7a 7a 68 3d
       -0.07171 -0.108327724 -0.053431757 0.056757428
0000d0 d9 1e 9c bd 76 73 d9 bd 72 fa b8 3c ff be 0a be
       -0.07623071 -0.106177256 0.02258036 -0.13549422
0000e0 09 1f ff bc f3 ea 44 3d 8d f2 23 bd f6 9a 56 bd
       -0.031142728 0.048075628 -0.040026236 -0.052393876
0000f0 cd 9b 96 3c 9c 6f ad bd bf 72 26 3d 86 8b 6f 3d
       0.018384838 -0.084685534 0.040636774 0.05848267
000100 00 aa 09 3e 94 f6 52 3d 67 2b 56 3c c4 27 0b 3b
       0.13443756 0.051504686 0.013071871 0.002123342
000110 d4 19 8f 3c 67 64 40 bc 28 fc 4f 3d 11 ac bd bd
       0.01746837 -0.011742688 0.050777584 -0.09261335
000120 1a 4f 93 3d 36 33 ed bc b5 35 56 3d 35 15 5c bc
       0.07192822 -0.028955083 0.052297313 -0.0134327905
000130 ef 92 aa bd e9 28 b2 bd 7b 5f 52 3d db c7 2f 3d
       -0.083288066 -0.08699209 0.05136059 0.042915206
000140 02 8c f0 3b 3a 93 6c bc 30 f7 f0 bc 8b 8e 04 ba
       0.007340909 -0.014439398 -0.029414743 -0.0005056641
000150 cd 5f 20 3d ab eb ca bd 92 1b 41 3c 3e d5 01 3d
       0.039153863 -0.09908231 0.011786358 0.031697504
000160 8c a8 b1 3d ff 54 31 bd f7 8f 5e 3c 95 d7 9a 3d
       0.08674726 -0.04329395 0.013584129 0.0756065
000170 46 54 f1 bd 53 86 ac bd c7 4d 32 3d 46 4d 14 3d
       -0.11783652 -0.08424058 0.043531206 0.036206506
000180 2f 22 74 bd e8 fb c7 bc 26 6a ce 3d 86 91 e9 3d
       -0.059602913 -0.02441211 0.1007884 0.114047095
000190 bc 15 13 3d 48 c7 dc bb 07 76 c7 bd 54 d0 19 3d
       0.0359094 -0.0067376234 -0.09739309 0.037552193
0001a0 0a 07 42 3d 55 15 62 bd 1c c7 31 bd 91 5c a1 bd
       0.047369994 -0.055196125 -0.043402776 -0.07878984
0001b0 c9 6c a5 bd 24 28 b4 bd 17 6c c9 bc 39 91 bf 3d
       -0.0807739 -0.08796719 -0.024587674 0.09353871
0001c0 29 82 9b bc 4d 55 bc bd dc 69 ae 3c b1 0b a9 3c
       -0.018982964 -0.09195957 0.021290712 0.020635458
0001d0 31 32 cd bd 8e 40 2c bd a2 bf 2c 3b b5 bb 81 3d
       -0.10019339 -0.04205375 0.002635934 0.063346304
0001e0 3d 17 63 3d 47 49 f4 3c d6 c1 2e bd 07 82 5c bd
       0.055442084 0.029820098 -0.042665325 -0.05383494
0001f0 bc 76 5a 3d 3b 6d ac 3d 5f 9a 5f 3d f3 2b b1 3d
       0.05333589 0.084192716 0.05459058 0.08650961
000200 f2 3e 9f 3c df 8d a2 3d d1 a6 20 3d e2 7d 47 3d
       0.019439194 0.07937216 0.03922159 0.048704036
000210 15 57 5a 3b 1c e3 cb bd 27 e9 d2 bd 45 94 8c 3d
       0.0033316065 -0.09955427 -0.102983765 0.06864218
000220 59 b6 bb 3d f6 48 c3 3b c0 09 54 bd 39 18 0e bc
       0.091656394 0.0059596254 -0.05176711 -0.008672767
000230 ba 80 be 3d b2 1c 3e bd 24 21 54 bd ee 58 57 3b
       0.093018964 -0.046414085 -0.051789418 0.0032859403
000240 cf 29 09 3c bc bb 26 3d 50 16 2e bc 52 95 29 3d
       0.008371784 0.04070638 -0.010625437 0.04140217
000250 54 be 80 bb 9b 90 6a bd 5a 1d 7e bc 01 cb f0 bd
       -0.003928939 -0.057266813 -0.015509928 -0.1175747
000260 56 17 48 3d 9a 85 8d bb c9 7e 91 bd e6 eb e7 bc
       0.04885038 -0.004318905 -0.071042605 -0.028310727
000270 b6 5c dd bc 98 14 0f bd 1e 95 ad bd ba 2e 17 bd
       -0.027021747 -0.03493175 -0.084757075 -0.036909796
000280 8d ab 15 bd 57 fe b7 bc e9 bf ad 3d e5 7c a7 bd
       -0.036540557 -0.022460146 0.084838696 -0.081781186
000290 d6 d6 5f 3d f4 6a 1a bc 4a 23 14 3c cd a6 20 bd
       0.054648243 -0.009424914 0.009041617 -0.039221574
0002a0 33 bc 9b 3d 90 49 b5 bc 1b 54 ca bd a2 da 09 3c
       0.076042555 -0.022129804 -0.09879323 0.0084139425
0002b0 47 c6 c5 bd 88 02 85 3d a8 d8 a2 3d 40 a2 e6 3c
       -0.09656959 0.064946234 0.0795148 0.028153539
0002c0 44 c6 9d 3d 44 33 dd bd d8 77 75 3d a0 5e fc bd
       0.07703832 -0.10800794 0.059928745 -0.12322736
0002d0 a6 2b b3 3d 87 d1 1b 3d a6 36 8d bd ea 9b a4 3d
       0.0874856 0.038041618 -0.06895189 0.08037551
0002e0 43 a0 ba bd 40 b7 e7 3c 4e 5b 98 bd a7 99 37 3d
       -0.09112599 0.028285623 -0.0743929 0.04482427
0002f0 f9 f5 11 bd 85 70 2a bd b5 25 51 3d eb d3 62 bd
       -0.03563497 -0.041611213 0.05106135 -0.055377882
000300 83 64 87 bd 3a 65 51 3d 76 4f aa bc 2b 8c e9 3c
       -0.06610968 0.051121928 -0.020789843 0.02850922
000310 e1 b7 c7 3b 73 93 1d 3d 31 59 86 3d 9c 5e 85 bd
       0.006094918 0.038470697 0.06559981 -0.06512186
000320 85 fb 32 3d 06 5d 9b 3d 14 a8 80 bd ea c6 1b 3d
       0.0436969 0.07586102 -0.06282058 0.038031496
000330 45 f6 a0 3c b9 20 66 bd cb df 9f 3c db 4f 2f 3d
       0.01964868 -0.05618355 0.019515892 0.042800765
000340 ce 32 43 3d 42 3d 04 3d 8c ec 0b 3d 25 74 48 3d
       0.047655873 0.032284983 0.034161136 0.04893889
000350 94 09 ef 3c 8a bf 15 3d af b5 bb 3d 19 c3 53 3c
       0.029179372 0.03655962 0.09165513 0.012924933
000360 12 6c 5f 3d 95 27 f3 bc f8 54 67 3d 5d ce 35 3d
       0.054546423 -0.02968196 0.056477517 0.044386256
000370 52 88 10 3c 8a f5 28 bc ed b1 b7 3c f0 23 80 3c
       0.008821564 -0.010312447 0.022423709 0.015642136
000380 65 98 75 3d bd 64 de 3d a5 24 9c bb 02 ec bb 3c
       0.059959788 0.10859058 -0.0047651106 0.022939686
000390 1f 37 71 bd df 18 38 3d c5 93 c0 bd 9f a3 9a bd
       -0.05889046 0.044945594 -0.09403185 -0.075507395
0003a0 29 2b 0a 3c a1 53 b1 bc 69 a9 0b bd ea 8b 9d 3d
       0.008433142 -0.021646323 -0.03409711 0.07692702
0003b0 43 c1 3b bd 6a 93 1a bd b6 1e 14 bd 34 db 83 bd
       -0.045838606 -0.03773824 -0.0361621 -0.06438294
0003c0 84 da 81 bd bb 00 94 bd d4 4a c8 bd f0 4b 7c bd
       -0.06340507 -0.07226702 -0.09779897 -0.061595857
0003d0 b9 64 22 bd 61 35 0b be da 7c cc 3d eb b4 c6 bd
       -0.039646838 -0.13594581 0.09984751 -0.09702476
0003e0 8e 3d 64 3d d0 a6 c9 3d 96 8c bf bd 7d 84 2f bd
       0.055722766 0.0984627 -0.093529865 -0.04285096
0003f0 7a 76 2c 3d 72 5b 93 3c da 31 92 3d 12 ec b0 3c
       0.042105176 0.01798794 0.07138415 0.021596942

sequential/conv2d_2/Conv2D f4 [32, 3, 3, 32]
000000 30 0c c4 bd 1b 4b 0e bd 64 4b 92 bc bb d1 e4 bb
       -0.09572637 -0.034739595 -0.017858215 -0.0069830096
000010 a5 4d 89 bc 1a d8 c5 bd 63 e8 b2 3a 5d 19 8d bd
       -0.016760657 -0.09660359 0.0013649579 -0.06889603
000020 92 1b af bd f0 bc 75 bd e0 26 dc bc 38 b3 19 3d
       -0.085501805 -0.059994638 -0.026874006 0.037524432
000030 8c 2d ae 3d 9e 21 92 3d 29 9d f0 3d 05 d3 2c bd
       0.08504781 0.07135318 0.11748726 -0.04219343
000040 f4 ac cd 3d fe 69 0d 3d 6f ef 29 3d 2c f6 23 3d
       0.10042754 0.03452491 0.041488107 0.04002969
000050 d5 b0 34 bc 0a 41 f3 3d b9 a2 d4 3c 0a b2 f4 3d
       -0.011028488 0.118776396 0.025956498 0.11948021
000060 a4 c4 66 3d 86 d0 a9 bd 1f 80 bf bd a6 8d d1 bd
       0.056339875 -0.08291726 -0.09350609 -0.102320954
000070 7f 7d 27 bd d8 62 4b 3d 12 44 ad bd 0b b1 81 bd
       -0.040891167 0.04965481 -0.08460249 -0.063325964
000080 19 c7 e5 bd a8 bb 3b 3c 45 60 c3 3d 28 03 1d 3d
       -0.112196155 0.011458315 0.09539846 0.03833309
000090 12 cb 78 3c a4 0b af 3d 80 b5 0a bd 27 83 91 bd
       0.0151851345 0.08547142 -0.0338645 -0.071050934
0000a0 08 a6 85 3c ec b9 b8 3d 5c b3 1f bd e9 5f ba 3d
       0.016314521 0.09019837 -0.03898941 0.09100325
0000b0 44 39 61 bd 35 06 36 3d e3 28 3b bd 6b d5 a8 3d
       -0.054986253 0.044439513 -0.04569329 0.08243831
0000c0 37 8c 6e bd 2e 79 03 3d 84 38 44 3c c9 68 8c 3b
       -0.058239188 0.032097988 0.011976365 0.0042849523
0000d0 6e a8 06 bc db 2a db 3d 0c 86 bf bc 20 23 99 bc
       -0.008218868 0.107015334 -0.023379348 -0.018693507
0000e0 00 47 fc 3c 15 38 42 3d 67 78 99 bd 48 9d d7 3c
       0.030795574 0.047416765 -0.07493668 0.026320115
0000f0 33 3c a9 bd 58 a3 12 3c ed 83 e9 bd 85 44 88 bd
       -0.08263435 0.008950077 -0.11402116 -0.06653694
000100 c8 7c 5a ba ea a1 50 3d 33 e1 0f bd 24 bb 8a bc
       -0.0008334634 0.050935663 -0.035126876 -0.016934939
000110 ca a4 d8 bd 4b 3a 88 bd d5 37 57 3b 7c 31 8f 3c
       -0.10578306 -0.066517435 0.0032839675 0.01747965
000120 dc 49 9b 3c a2 d6 4e bd c8 fb 68 3d d9 31 d6 3c
       0.018956117 -0.05049766 0.056880742 0.026146816
000130 37 c4 9b 3d 44 e7 9a 3c f8 7f 7b 3d 9a 7d 93 3d
       0.076057844 0.018909104 0.061401337 0.07201691
000140 ec 4e d5 3d 1b b7 9e 3d b4 59 9b bb bf 63 74 bd
       0.10415444 0.07749768 -0.004740918 -0.059665438
000150 c4 78 86 bd d3 e7 8f 3d 29 30 b6 bd 3d 58 2a bd
       -0.06566003 0.07026639 -0.088959046 -0.041588057
000160 98 7f 97 3c f5 c6 0a 3d 22 8a 0c bd 47 c2 21 bd
       0.018493459 0.033881146 -0.03431142 -0.039491918
000170 ed e9 86 3d a3 5a 87 bd 2c d5 20 3d 44 e4 81 bd
       0.065875866 -0.066090845 0.039265797 -0.06342366
000180 1c e8 04 bd c1 59 29 ba 2f 61 e5 3c 3c 91 4d bd
       -0.03244792 -0.0006460213 0.028000442 -0.050187334
000190 f2 c2 94 bd f5 2f 79 bd 72 6f 1f bd 2e 19 82 3d
       -0.07263745 -0.06083675 -0.038924642 0.06352459
0001a0 17 0a e8 bd ba ca 32 3d 00 3e c3 3c 69 2b bf 3d
       -0.113300495 0.043650366 0.023833275 0.09334452
0001b0 c0 81 d3 3b 06 c6 b4 3c 06 4d 94 3b 17 29 0c 3d
       0.0064546764 0.022067081 0.0045257835 0.034218874
0001c0 39 51 3e bc d2 fc 92 3d 0e 02 b9 3d 5f bd 86 bd
       -0.011616045 0.07177128 0.09033595 -0.065790884
0001d0 7e 58 b1 3c cc 37 7d bc 86 39 a1 bd 8b 7a 38 3c
       0.021648642 -0.015455198 -0.078723 0.011259685
0001e0 68 b4 9e bc 8f 80 c0 3d 76 62 12 be 0b 8a ba bd
       -0.019373134 0.093995206 -0.14295372 -0.09108361
0001f0 36 4b 08 be f0 eb 99 bb 70 33 17 3b de dc 0c be
       -0.1330994 -0.0046973154 0.002307143 -0.13756129
000200 be 6b 04 be c8 79 88 bc 94 7d a7 3d f1 c4 54 3c
       -0.12931725 -0.016659632 0.08178249 0.012986408
000210 61 59 d3 bd 2c fa a6 bc d6 39 20 3d ff b8 3d bd
       -0.10319782 -0.020382963 0.039117657 -0.046319004
000220 83 86 33 bd 58 75 c0 3d 26 19 ad 3d 22 ab bc bd
       -0.043829452 0.093973815 0.08452062 -0.092123285
000230 a8 61 0e bd 23 49 9f 3d 86 dc 80 3d 30 77 ba 3d
       -0.0347611 0.077776216 0.062920615 0.091047645
000240 73 ce 77 3d c3 77 45 bd e2 6c 3d 3c 6d fb 9b bd
       0.06049962 -0.048209917 0.011561604 -0.07616315
000250 1a 4f 08 3d fe 3a 2c 3d 2c 1a 03 be 19 04 15 3c
       0.033278562 0.042048447 -0.12802953 0.009095215
000260 8e 4e c7 bd 72 2d eb 3d 98 8c 13 be 11 4a 8f bd
       -0.0973178 0.114832774 -0.14409101 -0.06996549
000270 88 a0 5c 3d 92 68 94 3d bc e0 b6 3d 70 9f 9c bd
       0.053864032 0.07246508 0.089295834 -0.07647598
000280 e0 f8 6b bc 13 1d 99 3d e8 5e e1 3d 45 3d a0 3d
       -0.014402598 0.074762486 0.1100443 0.07824186
000290 cf da bc 3c e3 22 bb bd 3b cc 44 3d 34 23 86 3d
       0.023053555 -0.091375135 0.04804633 0.06549683
0002a0 d8 59 f5 bc 1e 23 a0 3d 08 90 0a 3d 3c 00 a1 3d
       -0.029950067 0.07819198 0.033828765 0.07861373
0002b0 34 53 48 3d 50 3c 99 bd 1b ce 27 3b 3c 67 5c bd
       0.048907474 -0.07482207 0.0025605026 -0.05380939
0002c0 77 bc 54 3d f0 14 48 3c fc 4b 86 3d dd 33 88 bd
       0.051937547 0.012212023 0.065574616 -0.06650517
0002d0 21 4a 90 bd bd 66 7f 3d 98 06 03 be ee ee 42 3d
       -0.07045389 0.06235384 -0.12795484 0.047591142
0002e0 40 2f c1 3c a5 17 09 bd e3 4f 69 bd e6 93 d7 3c
       0.0235821 -0.033469815 -0.05696095 0.02631564
0002f0 f9 60 88 bd 71 00 af bd 22 86 6b bc cb dd 9f bd
       -0.06659121 -0.08545006 -0.0143752415 -0.078059755
000300 25 24 96 bc ca 5b 33 3c f2 01 1e bd 6d c6 37 3d
       -0.018327782 0.010947177 -0.038576074 0.044866968
000310 67 8d 46 bd 46 45 d2 bd 54 6d 2d bd 68 41 e2 bc
       -0.048474696 -0.10267119 -0.04234059 -0.027619079
000320 13 13 d1 bd b7 ae c2 bd e8 b7 32 3d f1 d7 dd bd
       -0.10208716 -0.095059805 0.043632418 -0.10832203
000330 84 73 bc 3d 8c 7e d2 3d 14 ec 9b bb 2d ce 79 3d
       0.0920172 0.10278043 -0.0047583673 0.06098764
000340 cf f9 59 3c 40 c1 10 3d 2e 9f 94 bd 73 59 b8 3c
       0.013304188 0.035340548 -0.072569236 0.02250359
000350 79 16 5c 3d 82 01 1e 3d 8c 16 06 be 9a 7e 1a bd
       0.05373237 0.038575657 -0.13094538 -0.037718393
000360 ec 0e c7 3d 9a 0a b3 3b 46 40 dd bd f6 7c c4 bd
       0.09719643 0.0054639103 -0.10803275 -0.09594147
000370 f4 d7 ed bd 74 a5 84 3d 78 ee 98 3b 44 6d de bc
       -0.116134554 0.0647687 0.0046670996 -0.027151711
000380 c8 73 9a 3b 2f 93 64 3b 74 16 16 3e 39 30 1c 3c
       0.004713509 0.0034877767 0.14657003 0.009532982
000390 84 f8 83 bc 54 b9 27 3d 67 f0 5d bd b0 d4 df 3b
       -0.016109712 0.040948227 -0.054184344 0.0068307742
0003a0 01 d4 32 3d dc 25 3f bd 7c 85 c8 3d 8f 12 d5 3b
       0.043659214 -0.046666965 0.09791085 0.0065024565
0003b0 6c 0e 98 3d 6e 84 9b 3d e8 85 ad 3c 0c 12 aa bc
       0.07424626 0.07593618 0.021182016 -0.020760559
0003c0 64 76 a1 3d 02 87 8a 3d c8 e3 e2 3d bf 82 da bc
       0.07883909 0.06764032 0.11078602 -0.026673673
0003d0 7a f6 ed 3d 65 41 ed 3d b2 55 14 be 09 bd 92 3d
       0.11619277 0.11584739 -0.14485815 0.07164962
0003e0 d2 e1 f1 bc 1c 84 d4 3b 8a 28 73 bc 55 82 c2 bd
       -0.029526625 0.006485475 -0.014841208 -0.09497515
0003f0 a7 57 eb bc 08 f5 0f bd 05 c0 1a 3d b4 6b 42 bd
       -0.02872832 -0.03514579 0.03778078 -0.047465995

sequential/dense/BiasAdd/ReadVariableOp f4 [128]
000000 00 00 00 00 62 f1 6c bc 7c 3e f7 3b 33 86 49 bb
       0.0 -0.014461847 0.0075452905 -0.0030750155
000010 0f b4 c4 bb c8 23 cf bb 00 00 00 00 12 d2 9d 3c
       -0.00600291 -0.006321404 0.0 0.019265208
000020 ed 50 aa 3c a8 78 c9 3c c7 e1 01 bc a7 d3 13 3b
       0.020790542 0.024593666 -0.007927365 0.0022556575
000030 d2 b5 1e 3c 00 00 00 00 29 d0 8a ba 00 00 00 00
       0.009686904 0.0 -0.0010590601 0.0
000040 00 00 00 00 48 c1 4b bb fe 2a 25 3c 38 b2 d4 3b
       0.0 -0.0031090546 0.010081051 0.006490972
000050 cc bf 1e bc 00 00 00 00 00 00 00 00 7a 93 5b 3b
       -0.009689283 0.0 0.0 0.003350465
000060 7d a9 c4 bb 29 17 0d bc 90 8f 20 3c dc 19 56 3b
       -0.00600165 -0.008611479 0.009799853 0.0032669222
000070 80 cb 4f 3b e3 4c 5b bc 5b c9 0a bc 21 b5 70 ba
       0.0031706989 -0.01338503 -0.008470858 -0.0009182264
000080 34 d5 5f 3a 00 00 00 00 77 16 84 bc a8 0a 1e 3c
       0.00085385446 0.0 -0.016123993 0.009646095
000090 2e 11 f8 bb d7 20 29 3c 21 61 8b 3c fc 2f b6 3c
       -0.0075704074 0.010322771 0.017014088 0.022239678
0000a0 96 25 3a 3c 00 00 00 00 a3 86 24 3c 3c e0 69 3c
       0.0113615 0.0 0.0100418655 0.014274653
0000b0 aa 49 56 3c 14 ea a2 39 d2 e4 ad bb 98 58 b3 3b
       0.013079086 0.0003107345 -0.0053068185 0.0054732077
0000c0 8a 48 5f 3c 5d 02 46 3c f3 a3 cc bb dc 7a 0b bc
       0.0136281345 0.012085524 -0.00624513 -0.008513179
0000d0 b9 54 09 bc 00 00 00 00 9f e4 85 bb cf a1 68 3c
       -0.008382016 0.0 -0.0040860916 0.014198734
0000e0 30 56 24 3c 00 00 00 00 e3 97 35 bc 5b 45 14 3b
       0.010030314 0.0 -0.011083576 0.0022624347
0000f0 a2 7d 06 bc 59 b2 87 3a b8 cd 29 bc ae 84 67 bc
       -0.008208664 0.0010352834 -0.010363989 -0.014130754
000100 8c 98 4b 3b cf 78 9d bc 00 00 00 00 9c 28 a0 3c
       0.0031066267 -0.019222645 0.0 0.019550614
000110 81 5e c7 bb 32 0d fa bb b5 52 10 bc c1 b4 a7 bb
       -0.006084264 -0.0076309675 -0.008808781 -0.005117983
000120 9b ed a1 bb e2 13 28 3b 0e e5 1b bb 7a ee a6 ba
       -0.004941655 0.0025646617 -0.002378765 -0.0012735866
000130 cd ca 23 bc 69 88 e1 3c 43 d7 38 3a 53 b5 43 3c
       -0.009997082 0.027530866 0.00070511195 0.0119450865
000140 00 00 00 00 71 00 24 3c 78 a6 96 3c e0 0d dc 3b
       0.0 0.010009871 0.018389925 0.006715521
000150 a7 8f 98 3c 58 13 2f 3c ca e6 81 bb 7f 41 37 3c
       0.018623186 0.010685764 -0.00396428 0.011185049
000160 c8 f3 c0 bb 3c 94 62 bc 68 e7 b7 3c d0 67 9d 3c
       -0.005888436 -0.013829287 0.02244921 0.01921454
000170 81 d3 2f bc 8d ca 12 bc 00 00 00 00 00 00 00 00
       -0.010731579 -0.008959425 0.0 0.0
000180 55 65 d1 bb 17 37 3f bc 24 f7 37 bc 3a 25 08 3c
       -0.0063902535 -0.011670849 -0.0112283565 0.008309657
000190 00 00 00 00 96 82 2e 3c a6 a3 40 bc ce 8c c2 b9
       0.0 0.010651251 -0.011757767 -0.0003710747
0001a0 00 00 00 00 bd c0 4c 3c d8 3f 00 bc d6 3e 1a bc
       0.0 0.012497124 -0.007827722 -0.009414395
0001b0 51 3d 7c 3b 36 c9 16 bb b3 12 e2 bb ed 5b 81 3c
       0.0038488696 -0.0023008115 -0.006899202 0.015790904
0001c0 fb 8f 60 3c 34 45 c6 3c 21 dc 37 3c c8 30 26 bc
       0.013706203 0.02420292 0.011221916 -0.010143466
0001d0 0e c5 c4 bb 2c 60 9c bb ec 63 2d bb ee c8 27 3b
       -0.006004936 -0.004772207 -0.0026457263 0.002560194
0001e0 45 35 ae 3b f1 88 25 3c 1a 1c a3 3b 6b 5d c4 3b
       0.005316409 0.01010345 0.004977715 0.0059925816
0001f0 03 a0 99 bb 45 7e 57 bb 70 cd 30 bc be 7d 26 3c
       -0.0046882643 -0.003288166 -0.010791168 0.010161815

sequential/dense_1/BiasAdd/ReadVariableOp f4 [3]
000000 46 5c e8 3b 1e 06 3a bc 68 05 c7 3b
       0.007091078 -0.0113539975 0.0060736425

sequential/dense/MatMul f4 [128, 128]
000000 78 57 dc 3c b2 61 90 3d c0 74 07 bb 9c 45 33 3d
       0.026897177 0.07049884 -0.0020668954 0.043767557
000010 fe 3c d5 3d 88 ac 88 bd a6 0e 89 3d a8 52 18 bd
       0.10412024 -0.06673533 0.06692247 -0.037188202
000020 44 e0 1b be 80 c2 0a 3d c0 48 2e bb 80 1a 12 bc
       -0.1522227 0.033876896 -0.0026593655 -0.008917451
000030 66 02 0f be f8 4b 25 bd 64 ce 16 be 20 c7 e2 bc
       -0.13965759 -0.040355653 -0.1472717 -0.02768284
000040 0a fb fc bd c1 29 12 3e 28 b6 09 be ec 18 08 be
       -0.123525694 0.1427374 -0.13448393 -0.13290757
000050 e8 c7 b3 bd 9a c1 ee 3d dc fb 85 3d 60 ac 7f 3c
       -0.087783635 0.1165802 0.06542179 0.015605062
000060 09 92 af bd 06 ad 02 bd 98 56 c4 bd ca 43 bb bd
       -0.08572776 -0.03190329 -0.09586829 -0.09143789
000070 82 2e f8 3d fa 80 c9 3d 34 0e 50 bd 6c 79 10 be
       0.12118246 0.098390535 -0.050794795 -0.14108819
000080 00 07 2a 3a 96 38 59 bd 2c f7 53 3d 88 1a 0f be
       0.00064860284 -0.05303248 0.051749393 -0.13974965
000090 78 b2 3c bd ac ae 21 3d f0 12 7b bc 40 96 52 bb
       -0.04606864 0.03947322 -0.015324339 -0.0032133013
0000a0 44 bd bf 3d 8b 28 c7 bd fe ee 9f bd 9a 48 dc 3d
       0.093622714 -0.0972453 -0.07809256 0.10756035
0000b0 62 2a ba 3d 58 c4 cd 3c 78 90 d8 bd 26 1e 69 bd
       0.09090115 0.025118038 -0.1057443 -0.056913517
0000c0 e6 f5 d0 3d 0a 8c ce 3d b0 70 4e bc d0 97 3e 3d
       0.102031514 0.10085304 -0.012600109 0.0465315
0000d0 cd 04 08 be 74 93 af 3d 72 e5 8e bd 7f b4 0e 3e
       -0.13283081 0.08573046 -0.06977357 0.13936041
0000e0 0c 15 b2 3d 12 ea 56 bd ae 6f f0 3d c0 61 4f 3b
       0.086954206 -0.05246932 0.11740051 0.0031643957
0000f0 8b 54 0e be 6e 0b e7 bd b0 06 55 3c 0c 1c 06 bd
       -0.13899438 -0.11281477 0.013002083 -0.03274159
000100 14 65 21 bd 58 cc fa bd ce b7 b4 3d 95 47 0f 3e
       -0.039403036 -0.12246007 0.088241205 0.1399215
000110 d0 62 38 3d 3a 8d 29 bd 10 45 92 3d 5a 6d 7a bd
       0.04501611 -0.04139445 0.07142079 -0.061139442
000120 5e 0c b3 bd 1b a3 09 3e 18 62 d7 bd fc 4d ec bc
       -0.08742593 0.13441126 -0.10516757 -0.02884578
000130 d1 fe c7 bd 37 9a 1b 3e 46 8c 96 3d 0e d7 07 be
       -0.09765399 0.15195547 0.07350974 -0.1326563
000140 94 b3 83 3d 52 d4 ba 3d 3c f9 86 3d 49 2c 10 3e
       0.06430736 0.09122528 0.065905064 0.14079393
000150 8c d6 d8 bd 9a a7 d3 3d ac c1 2e 3d 9a f2 07 be
       -0.105877966 0.10334702 0.04266517 -0.13276139
000160 26 4e 30 bd 66 3e d1 bd a4 fd 3c 3d c0 9d a6 bd
       -0.04304328 -0.1021698 0.046140328 -0.08135557
000170 88 a1 8c bc 96 0b 0c be 66 db 99 3d ca 38 3f bd
       -0.017166868 -0.13676295 0.0751255 -0.046685018
000180 be 8b 07 be fa 36 e8 3d 6c e0 bb 3d a0 31 bf bc
       -0.13236901 0.11338611 0.091736645 -0.023339093
000190 c0 18 97 3b d0 45 4c bd 80 fa 7d 3c 43 b0 86 bd
       0.0046111047 -0.049871266 0.015501618 -0.06576588
0001a0 76 cc d5 3d 1c 7a ba bd 40 81 17 bb a8 4f b2 3d
       0.104393885 -0.09105322 -0.002311781 0.087065995
0001b0 c0 3e 4b bb 64 24 3f bd 66 25 89 bd 30 b8 84 bc
       -0.0031012744 -0.046665564 -0.06696586 -0.016201109
0001c0 50 f8 0a be 6c 8a 5a 3d 90 17 28 bd db 53 90 bd
       -0.13571286 0.053354666 -0.041038096 -0.07047244
0001d0 a4 f6 16 3d ce ed f5 bd f0 26 b2 bd e0 c4 cb bc
       0.03685631 -0.12008248 -0.08698833 -0.02487415
0001e0 f4 7b 78 bd e8 cf 22 3d 4d 3f d1 bd 06 a2 d5 3d
       -0.060665086 0.039749056 -0.10217152 0.10431294
0001f0 ec 37 8d 3d 7b 78 03 3e 7a 17 88 3d 83 68 14 3e
       0.06895432 0.12838928 0.06645103 0.14492993
000200 9f 6c c2 3d 9c 2f 11 be 21 3e 0b 3d ca 10 a8 3d
       0.09493374 -0.14178318 0.033994798 0.08206327
000210 0a 12 e7 bd ce f7 b1 3d 47 10 ae bd df 50 d2 bc
       -0.112827376 0.08689843 -0.084991984 -0.025673328
000220 d9 b8 3d bd 30 6e ac bc ef 4c 67 bc b8 35 2d bd
       -0.046318863 -0.021048635 -0.0141174635 -0.04228756
000230 13 a2 cb 3d 84 6d 11 be 0c ad 9d 3d 33 4b bd 3d
       0.099430226 -0.14201933 0.07699022 0.09242859
000240 58 bf 21 3d 44 bf e8 bd 8a 9a cb bd 11 4f 12 bd
       0.03948912 -0.11364606 -0.09941585 -0.035719935
000250 24 e8 dd 3d 21 9a ce bd 4b 95 06 3e ca a6 1c be
       0.10835293 -0.100879915 0.13142888 -0.15298
000260 dd 41 e6 3d 6f 86 e1 bd c6 70 7d 3c 28 7d 15 be
       0.11243031 -0.11011969 0.015468782 -0.14598525
000270 9e 7e d8 3d 96 02 b7 3d cc 17 29 be 82 40 07 3e
       0.10571025 0.0893604 -0.16512984 0.13208202
000280 01 b4 d3 bb 3a f6 88 bd fb 98 12 be 48 e0 a5 3d
       -0.006460667 -0.06687589 -0.1431617 0.08099419
000290 22 22 a3 3d c0 cd c1 bb 6b 86 9a bd 0c 32 84 bd
       0.07965495 -0.00591442 -0.075451694 -0.06454858
0002a0 af ac 76 bd a2 9f 1d bd 6b b7 1a be 83 14 02 be
       -0.060223278 -0.038482316 -0.15109031 -0.12703137
0002b0 34 b1 a9 bd bc 60 d0 3d 44 19 d6 bd 75 61 48 3d
       -0.08285752 0.101747006 -0.10454038 0.048921067
0002c0 42 3d 10 be d0 dd 33 bc d8 c6 0f 3d 2b ec 90 bd
       -0.14085868 -0.010978177 0.03510174 -0.070762955
0002d0 82 6a 63 bd 7b 2f 87 bd 72 0f 90 3d 90 64 19 bc
       -0.055521496 -0.06600853 0.07034196 -0.009362355
0002e0 6f 7c 1b be d4 df da bd 56 2c df 3d 49 bf 84 3d
       -0.15184186 -0.10687223 0.10897128 0.06481797
0002f0 db 72 72 3d 0a d8 b7 3d af 72 63 3d e7 e0 84 b9
       0.059191566 0.08976753 0.055529293 -0.00025344567
000300 c7 02 c0 3d ba 06 c9 bd 65 ff 80 3b 6c 0d f8 bc
       0.0937553 -0.09815736 0.0039366954 -0.030279838
000310 ca de d4 3c 88 8b a0 bd 59 fe 17 be 50 d5 a1 bd
       0.02598514 -0.078391135 -0.1484312 -0.07902014
000320 02 25 1f be c3 cd 83 bd 57 85 07 3d b0 59 ad bc
       -0.15541461 -0.0643573 0.033086147 -0.02116093
000330 d9 16 c9 bd 40 92 f9 3d 08 18 ea bd 3e f8 04 be
       -0.09818811 0.12186098 -0.11430365 -0.12985322
000340 81 63 cf 3d 89 2c 1a be e0 84 a2 3b c7 2c 11 be
       0.10126401 -0.15056051 0.0049596876 -0.14177237
000350 97 ba 15 3d ca 81 01 3e 2a be e5 3d f0 f2 7e 3c
       0.0365549 0.12647167 0.112179115 0.0155608505
000360 e2 e5 d8 3d 4c c0 a2 bd 18 c8 ec bd e1 0b 34 3d
       0.10590722 -0.07946834 -0.11561602 0.04395664
000370 20 39 d3 3d 03 59 0a be 74 70 c1 3d 2d 9e 7c bb
       0.1031363 -0.13510518 0.09445277 -0.0038546429
000380 cc 7f 0e be 38 58 4f bd 82 47 99 3d f6 5d d7 3d
       -0.13915938 -0.05062124 0.07484342 0.105159685
000390 26 6d 16 3d 16 e3 ff 3d 8a 8b b6 bd 77 3d 8a 3c
       0.036725186 0.12494485 -0.08913334 0.016875012
0003a0 23 c0 3d bd 9a 6a 7f bd 68 8f b5 bd 17 57 11 3b
       -0.046325814 -0.062357523 -0.08865243 0.0022177154
0003b0 f4 04 af bd ac 10 c3 3d 24 ec e2 3d 26 5b eb bd
       -0.085458666 0.09524664 0.110801965 -0.114919946
0003c0 b0 c7 af 3d 94 4b 47 bd 10 00 ec 3c c9 2d d1 bd
       0.08583009 -0.04865606 0.028808624 -0.10213811
0003d0 c2 e0 eb bb db d8 4b bd 17 f3 2a bd cd 55 de bd
       -0.007198424 -0.049767356 -0.041735735 -0.10856209
0003e0 18 8e 55 bd 6b 5d a3 3d b0 8a 23 bd 54 11 bd 3d
       -0.052137464 0.079768024 -0.039927185 0.09231821
0003f0 c8 e1 0e be ea ac 84 3d 63 a6 74 3d b2 e8 00 be
       -0.13953316 0.06478293 0.05972899 -0.12588766

sequential/dense_1/MatMul f4 [3, 128]
000000 56 45 bc 3d 77 38 23 3e f8 3b 40 3e 6c 5c 44 3d
       0.09192912 0.15939508 0.18772876 0.047939703
000010 5e ef a6 3c 23 3c 2c 3e d0 fc 5c bd 38 76 4e 3e
       0.020377811 0.16819815 -0.05395204 0.20162284
000020 7d cc 2f 3e ba c3 b9 bd 47 4f 15 3e ab 38 26 be
       0.1716785 -0.09070535 0.14581023 -0.16232555
000030 d8 ab 13 3e d0 cb f1 bc ec 01 dc b8 4c 7e 06 3d
       0.14421022 -0.02951613 -0.000104907755 0.03283529
000040 e8 c4 d2 bd 3f 2b 60 be 01 de 99 3c d5 fc 1e be
       -0.10291463 -0.21891497 0.018782618 -0.15526135
000050 e4 03 81 3d d6 3a 9a bd c0 04 0a bb fa 17 63 3e
       0.0629957 -0.07530753 -0.002105996 0.22177115
000060 0a 8b a7 3d be 2b 24 be 46 74 41 39 f2 9a 4f 3e
       0.081808165 -0.16032311 0.0001844923 0.2027395
000070 bb 05 37 3e 64 88 81 3d 89 6b cc 3d 3a af 5a be
       0.1787328 0.063248426 0.09981448 -0.21355906
000080 b4 6e 7a bc 20 f8 c1 bb 11 25 a8 bc 74 d2 c5 3c
       -0.015285183 -0.0059194714 -0.020525487 0.024148203
000090 e9 44 c0 3d 41 83 4f 3e 48 23 f3 3c 85 93 68 3d
       0.093881436 0.20264913 0.02967991 0.05678131
0000a0 05 c4 42 3d 0c 4c 0d be 91 72 ac bd 4a 62 1d 3e
       0.04755022 -0.13798541 -0.08420289 0.15369526
0000b0 16 46 91 3c ff ea 62 be 8c f1 4b be 0e 58 29 3e
       0.017733615 -0.22159956 -0.19916362 0.16537496
0000c0 c9 f9 e1 3c 5a 99 25 3e c9 50 35 3e ae c3 07 3e
       0.027584927 0.1617178 0.17706598 0.1325824
0000d0 6c 81 f6 bb c8 ca ae bd 49 84 9c 3b 52 b1 cc bb
       -0.0075227525 -0.08534771 0.004776512 -0.006246724
0000e0 82 2b f1 3d 78 61 55 be f5 7c 36 3d c5 37 02 bd
       0.117758766 -0.20837963 0.044552762 -0.031791467
0000f0 01 60 cc 3d 2b 55 c9 bd a2 37 ff bc d7 d4 40 be
       0.09979249 -0.098306976 -0.031154457 -0.18831192
000100 62 d7 df bd fe 85 2e be 18 68 0f 3d 34 f6 41 3e
       -0.10929753 -0.17043301 0.03501138 0.18941575
000110 95 02 0c bd 46 a2 c2 bd 28 4b 15 be 2e 81 29 3d
       -0.03418215 -0.095036075 -0.14579451 0.04138296
000120 3c 9d 7c be ba 67 6b be 6b ae 89 bd 58 46 a9 bd
       -0.24669355 -0.22988787 -0.06722721 -0.0826537
000130 e6 d4 1a be bd 44 62 be fc b6 0f 3e 66 5e 33 3d
       -0.15120277 -0.22096534 0.14034647 0.043791197
000140 98 dd a4 3c 4f de 8d 3d 88 7a 0a 3e 44 8d c7 bd
       0.020125195 0.069271676 0.13523304 -0.09743741
000150 f6 5a 4f 3e ab 41 1b be 0f d7 53 3c 1f f6 ed 3d
       0.20249543 -0.15161769 0.012929692 0.116192095
000160 62 c6 2f be 60 74 bb 3c 3e 57 3e be d1 a7 60 3e
       -0.17165521 0.02288264 -0.18587968 0.21939017
000170 1c 09 9e bd 17 27 d0 3d 43 33 4c 3e cf 55 33 be
       -0.07716581 0.10163706 0.1994143 -0.17513202
000180 df ff e8 bd 96 31 ca bd 5e 83 d2 bd ca bd 79 bd
       -0.113769285 -0.09872739 -0.102789626 -0.060972013
000190 80 4e 84 ba 23 8d 3d 3d 41 90 23 be 50 f0 1d be
       -0.0010094196 0.046277177 -0.15972997 -0.15423703
0001a0 5e 87 c9 3d fa 75 16 3e 9e e3 26 bd af f3 b0 3d
       0.09840272 0.14693442 -0.040744416 0.08640229
0001b0 86 4d 4a be 01 c3 d2 bc 1a de 1f 3e 56 e4 b4 3b
       -0.19756135 -0.02572775 0.15612069 0.005520384
0001c0 ff b8 84 3e b1 c1 94 3d bc 22 37 3e 75 a7 0d 3d
       0.2592239 0.07263506 0.17884344 0.034583528
0001d0 cf 6a 04 be 65 20 d3 3d 17 eb 4c bd 87 c2 da bd
       -0.12931369 0.10308913 -0.050028887 -0.106816344
0001e0 48 97 dc bc 44 34 69 3e f9 04 6f be c7 84 78 3d
       -0.026927605 0.22773844 -0.2334174 0.0606735
0001f0 69 45 5f 3e f4 3b 0a bd 3b cf 6c be f1 b4 a0 bd
       0.21803822 -0.033748582 -0.23125927 -0.07847012
000200 f3 85 4f 3e 10 10 c0 3d d7 82 19 be ab b7 1e 3e
       0.20265941 0.09378064 -0.14991318 0.15499751
000210 0b d2 02 be af b8 07 3e 24 47 05 be ff d1 3f be
       -0.12775438 0.13254045 -0.13015419 -0.18732451
000220 c5 c0 1f be 06 29 03 be 53 e2 f6 bd d5 00 6a 3e
       -0.1560088 -0.12808618 -0.12054887 0.2285188
000230 0e 27 8f ba 2a 1f 80 3d 01 14 8f bd 12 15 14 be
       -0.0010921673 0.06255944 -0.06986237 -0.14461163
000240 d7 6b c9 bd 3f ca 96 bd 46 f2 82 bd 2a 27 08 bd
       -0.09835022 -0.07362794 -0.06393866 -0.033240475
000250 1c 45 45 3e 8e ab fe 3d 9f d4 1e 3e 98 7a 29 3e
       0.19264644 0.12435065 0.15510796 0.16550672
000260 27 99 85 3d cd f2 3a be 15 a2 08 bc 88 4f 00 3e
       0.06523352 -0.18256684 -0.008339425 0.12530339
000270 81 f4 ad 3d a0 48 36 3e 0e 3f 78 3d c1 08 60 3e
       0.08493901 0.17801142 0.06060701 0.2187834
000280 f8 59 fc bc 28 3b 06 be bf 87 87 3d c8 db 16 be
       -0.03080462 -0.13108504 0.066176884 -0.14732277
000290 1f 62 4c 3e b4 7f 33 be 9e c6 54 bd 1a 03 0d be
       0.19959305 -0.17529184 -0.05194723 -0.13770714
0002a0 8f 89 2b be 83 a3 2d be 9a 12 56 be 65 4b 70 be
       -0.16751693 -0.16956906 -0.20905533 -0.2346626
0002b0 35 71 0f be cb c2 13 3e 48 4e 1d bd 40 26 19 3e
       -0.14008029 0.14429776 -0.038404733 0.14955997
0002c0 93 4a 41 bd ab ba 46 be 50 f2 ae bc 79 56 ac bd
       -0.04719026 -0.19407146 -0.021355778 -0.08414931
0002d0 98 0b 9d 3d 74 5f 0d 3d f2 c1 c3 3d 19 71 2f 3d
       0.07668227 0.03451486 0.095584765 0.042832468
0002e0 67 c4 0d be 4c cb 5e bd 6b 71 b4 bc 58 67 de bd
       -0.13844453 -0.054393098 -0.022026738 -0.10859555
0002f0 cb 58 5d 3e 26 98 2a 3d fc af ae 3d fe 5a af 3d
       0.21615903 0.041649006 0.0852966 0.08562277
000300 b6 d2 67 3e dd e8 11 3e 12 0d 9c 3d 0a c8 54 bd
       0.22638974 0.14248987 0.076196805 -0.051948585
000310 39 45 06 3d 6e 6f 1c 3d 87 0e 31 bd 9e a6 53 3e
       0.03278086 0.038192205 -0.043226745 0.20669028
000320 92 91 3e 3e 75 69 ab bd 37 f6 49 bc d2 f5 a8 3c
       0.18610218 -0.08369724 -0.012326769 0.020625029
000330 dc ca d8 bd 4d e1 bc 3d 90 76 4a 3d 8c 9d 11 be
       -0.10585567 0.0922266 0.049429476 -0.14220256
000340 20 68 2b bc 0e ae bf bc 86 ce 9f bd d8 57 27 be
       -0.010461837 -0.023398425 -0.07803063 -0.16342103
000350 e0 d4 4b be 9c f9 d2 3d 7b 0d 69 bd e2 3c 3c be
       -0.19905424 0.103015155 -0.05689762 -0.183826
000360 f3 35 33 3e 56 3e 12 be 14 4c a1 3d d5 eb 4c be
       0.17501049 -0.14281592 0.07875839 -0.20011838
000370 17 17 39 3e e8 ea 06 3e 1e f8 08 be d0 43 19 bc
       0.18075214 0.13175547 -0.13375899 -0.009354547
000380 68 4e 45 be 0c 18 31 3e 64 86 32 3e 92 79 fc 3d
       -0.19268191 0.1729433 0.17434078 0.12327875
000390 51 86 59 3e 40 b6 38 be 6a 31 27 3e d1 43 e0 3c
       0.21242644 -0.18038273 0.16327444 0.027376087
0003a0 e0 57 06 3c 99 1d 54 be 2e d2 85 3c 59 af 25 3e
       0.008199662 -0.20714416 0.016335573 0.16180171
0003b0 64 1b 37 be ff bc f4 bd ab d8 1d 3e e6 11 4f be
       -0.17881542 -0.11950111 0.15414684 -0.20221671
0003c0 06 fc 79 be 76 9e fa bd cb f0 09 be 68 a1 a0 3d
       -0.24412546 -0.12237255 -0.13470761 0.07843286
0003d0 ae 0c 18 3e 2e 0a 4d 3e cb 71 85 bb d7 27 98 bd
       0.14848587 0.20023414 -0.004072403 -0.07429474
0003e0 84 ab 32 3c 99 7f 48 bd be 7e 47 be 9c 87 a7 3d
       0.01090515 -0.04894981 -0.19481942 0.08180162
0003f0 44 08 1d 3e 47 fb 4f 3e 52 6c 2f 3e 29 36 d8 bd
       0.15335184 0.20310698 0.17131165 -0.10557205
